…
2021-11-29 02:11:10,143 [WARNING] tensorflow: From /usr/local/lib/python3.6/dist-packages/keras/backend/tensorflow_backend.py:206: The name tf.variables_initializer is deprecated. Please use tf.compat.v1.variables_initializer instead.

2021-11-29 02:11:13,769 [INFO] iva.detectnet_v2.objectives.bbox_objective: Default L1 loss function will be used.
__________________________________________________________________________________________________
Layer (type)                    Output Shape         Param #     Connected to                     
==================================================================================================
input_1 (InputLayer)            (None, 3, 384, 1248) 0                                            
__________________________________________________________________________________________________
conv1 (Conv2D)                  (None, 64, 192, 624) 9472        input_1[0][0]                    
__________________________________________________________________________________________________
bn_conv1 (BatchNormalization)   (None, 64, 192, 624) 256         conv1[0][0]                      
__________________________________________________________________________________________________
activation_1 (Activation)       (None, 64, 192, 624) 0           bn_conv1[0][0]                   
__________________________________________________________________________________________________
block_1a_conv_1 (Conv2D)        (None, 64, 96, 312)  36928       activation_1[0][0]               
__________________________________________________________________________________________________
block_1a_bn_1 (BatchNormalizati (None, 64, 96, 312)  256         block_1a_conv_1[0][0]            
__________________________________________________________________________________________________
block_1a_relu_1 (Activation)    (None, 64, 96, 312)  0           block_1a_bn_1[0][0]              
__________________________________________________________________________________________________
block_1a_conv_2 (Conv2D)        (None, 64, 96, 312)  36928       block_1a_relu_1[0][0]            
__________________________________________________________________________________________________
block_1a_conv_shortcut (Conv2D) (None, 64, 96, 312)  4160        activation_1[0][0]               
__________________________________________________________________________________________________
block_1a_bn_2 (BatchNormalizati (None, 64, 96, 312)  256         block_1a_conv_2[0][0]            
__________________________________________________________________________________________________
block_1a_bn_shortcut (BatchNorm (None, 64, 96, 312)  256         block_1a_conv_shortcut[0][0]     
__________________________________________________________________________________________________
add_1 (Add)                     (None, 64, 96, 312)  0           block_1a_bn_2[0][0]              
                                                                 block_1a_bn_shortcut[0][0]       
__________________________________________________________________________________________________
block_1a_relu (Activation)      (None, 64, 96, 312)  0           add_1[0][0]                      
__________________________________________________________________________________________________
block_1b_conv_1 (Conv2D)        (None, 64, 96, 312)  36928       block_1a_relu[0][0]              
__________________________________________________________________________________________________
block_1b_bn_1 (BatchNormalizati (None, 64, 96, 312)  256         block_1b_conv_1[0][0]            
__________________________________________________________________________________________________
block_1b_relu_1 (Activation)    (None, 64, 96, 312)  0           block_1b_bn_1[0][0]              
__________________________________________________________________________________________________
block_1b_conv_2 (Conv2D)        (None, 64, 96, 312)  36928       block_1b_relu_1[0][0]            
__________________________________________________________________________________________________
block_1b_bn_2 (BatchNormalizati (None, 64, 96, 312)  256         block_1b_conv_2[0][0]            
__________________________________________________________________________________________________
add_2 (Add)                     (None, 64, 96, 312)  0           block_1b_bn_2[0][0]              
                                                                 block_1a_relu[0][0]              
__________________________________________________________________________________________________
block_1b_relu (Activation)      (None, 64, 96, 312)  0           add_2[0][0]                      
__________________________________________________________________________________________________
block_2a_conv_1 (Conv2D)        (None, 128, 48, 156) 73856       block_1b_relu[0][0]              
__________________________________________________________________________________________________
block_2a_bn_1 (BatchNormalizati (None, 128, 48, 156) 512         block_2a_conv_1[0][0]            
__________________________________________________________________________________________________
block_2a_relu_1 (Activation)    (None, 128, 48, 156) 0           block_2a_bn_1[0][0]              
__________________________________________________________________________________________________
block_2a_conv_2 (Conv2D)        (None, 128, 48, 156) 147584      block_2a_relu_1[0][0]            
__________________________________________________________________________________________________
block_2a_conv_shortcut (Conv2D) (None, 128, 48, 156) 8320        block_1b_relu[0][0]              
__________________________________________________________________________________________________
block_2a_bn_2 (BatchNormalizati (None, 128, 48, 156) 512         block_2a_conv_2[0][0]            
__________________________________________________________________________________________________
block_2a_bn_shortcut (BatchNorm (None, 128, 48, 156) 512         block_2a_conv_shortcut[0][0]     
__________________________________________________________________________________________________
add_3 (Add)                     (None, 128, 48, 156) 0           block_2a_bn_2[0][0]              
                                                                 block_2a_bn_shortcut[0][0]       
__________________________________________________________________________________________________
block_2a_relu (Activation)      (None, 128, 48, 156) 0           add_3[0][0]                      
__________________________________________________________________________________________________
block_2b_conv_1 (Conv2D)        (None, 128, 48, 156) 147584      block_2a_relu[0][0]              
__________________________________________________________________________________________________
block_2b_bn_1 (BatchNormalizati (None, 128, 48, 156) 512         block_2b_conv_1[0][0]            
__________________________________________________________________________________________________
block_2b_relu_1 (Activation)    (None, 128, 48, 156) 0           block_2b_bn_1[0][0]              
__________________________________________________________________________________________________
block_2b_conv_2 (Conv2D)        (None, 128, 48, 156) 147584      block_2b_relu_1[0][0]            
__________________________________________________________________________________________________
block_2b_bn_2 (BatchNormalizati (None, 128, 48, 156) 512         block_2b_conv_2[0][0]            
__________________________________________________________________________________________________
add_4 (Add)                     (None, 128, 48, 156) 0           block_2b_bn_2[0][0]              
                                                                 block_2a_relu[0][0]              
__________________________________________________________________________________________________
block_2b_relu (Activation)      (None, 128, 48, 156) 0           add_4[0][0]                      
__________________________________________________________________________________________________
block_3a_conv_1 (Conv2D)        (None, 256, 24, 78)  295168      block_2b_relu[0][0]              
__________________________________________________________________________________________________
block_3a_bn_1 (BatchNormalizati (None, 256, 24, 78)  1024        block_3a_conv_1[0][0]            
__________________________________________________________________________________________________
block_3a_relu_1 (Activation)    (None, 256, 24, 78)  0           block_3a_bn_1[0][0]              
__________________________________________________________________________________________________
block_3a_conv_2 (Conv2D)        (None, 256, 24, 78)  590080      block_3a_relu_1[0][0]            
__________________________________________________________________________________________________
block_3a_conv_shortcut (Conv2D) (None, 256, 24, 78)  33024       block_2b_relu[0][0]              
__________________________________________________________________________________________________
block_3a_bn_2 (BatchNormalizati (None, 256, 24, 78)  1024        block_3a_conv_2[0][0]            
__________________________________________________________________________________________________
block_3a_bn_shortcut (BatchNorm (None, 256, 24, 78)  1024        block_3a_conv_shortcut[0][0]     
__________________________________________________________________________________________________
add_5 (Add)                     (None, 256, 24, 78)  0           block_3a_bn_2[0][0]              
                                                                 block_3a_bn_shortcut[0][0]       
__________________________________________________________________________________________________
block_3a_relu (Activation)      (None, 256, 24, 78)  0           add_5[0][0]                      
__________________________________________________________________________________________________
block_3b_conv_1 (Conv2D)        (None, 256, 24, 78)  590080      block_3a_relu[0][0]              
__________________________________________________________________________________________________
block_3b_bn_1 (BatchNormalizati (None, 256, 24, 78)  1024        block_3b_conv_1[0][0]            
__________________________________________________________________________________________________
block_3b_relu_1 (Activation)    (None, 256, 24, 78)  0           block_3b_bn_1[0][0]              
__________________________________________________________________________________________________
block_3b_conv_2 (Conv2D)        (None, 256, 24, 78)  590080      block_3b_relu_1[0][0]            
__________________________________________________________________________________________________
block_3b_bn_2 (BatchNormalizati (None, 256, 24, 78)  1024        block_3b_conv_2[0][0]            
__________________________________________________________________________________________________
add_6 (Add)                     (None, 256, 24, 78)  0           block_3b_bn_2[0][0]              
                                                                 block_3a_relu[0][0]              
__________________________________________________________________________________________________
block_3b_relu (Activation)      (None, 256, 24, 78)  0           add_6[0][0]                      
__________________________________________________________________________________________________
block_4a_conv_1 (Conv2D)        (None, 512, 24, 78)  1180160     block_3b_relu[0][0]              
__________________________________________________________________________________________________
block_4a_bn_1 (BatchNormalizati (None, 512, 24, 78)  2048        block_4a_conv_1[0][0]            
__________________________________________________________________________________________________
block_4a_relu_1 (Activation)    (None, 512, 24, 78)  0           block_4a_bn_1[0][0]              
__________________________________________________________________________________________________
block_4a_conv_2 (Conv2D)        (None, 512, 24, 78)  2359808     block_4a_relu_1[0][0]            
__________________________________________________________________________________________________
block_4a_conv_shortcut (Conv2D) (None, 512, 24, 78)  131584      block_3b_relu[0][0]              
__________________________________________________________________________________________________
block_4a_bn_2 (BatchNormalizati (None, 512, 24, 78)  2048        block_4a_conv_2[0][0]            
__________________________________________________________________________________________________
block_4a_bn_shortcut (BatchNorm (None, 512, 24, 78)  2048        block_4a_conv_shortcut[0][0]     
__________________________________________________________________________________________________
add_7 (Add)                     (None, 512, 24, 78)  0           block_4a_bn_2[0][0]              
                                                                 block_4a_bn_shortcut[0][0]       
__________________________________________________________________________________________________
block_4a_relu (Activation)      (None, 512, 24, 78)  0           add_7[0][0]                      
__________________________________________________________________________________________________
block_4b_conv_1 (Conv2D)        (None, 512, 24, 78)  2359808     block_4a_relu[0][0]              
__________________________________________________________________________________________________
block_4b_bn_1 (BatchNormalizati (None, 512, 24, 78)  2048        block_4b_conv_1[0][0]            
__________________________________________________________________________________________________
block_4b_relu_1 (Activation)    (None, 512, 24, 78)  0           block_4b_bn_1[0][0]              
__________________________________________________________________________________________________
block_4b_conv_2 (Conv2D)        (None, 512, 24, 78)  2359808     block_4b_relu_1[0][0]            
__________________________________________________________________________________________________
block_4b_bn_2 (BatchNormalizati (None, 512, 24, 78)  2048        block_4b_conv_2[0][0]            
__________________________________________________________________________________________________
add_8 (Add)                     (None, 512, 24, 78)  0           block_4b_bn_2[0][0]              
                                                                 block_4a_relu[0][0]              
__________________________________________________________________________________________________
block_4b_relu (Activation)      (None, 512, 24, 78)  0           add_8[0][0]                      
__________________________________________________________________________________________________
output_bbox (Conv2D)            (None, 24, 24, 78)   12312       block_4b_relu[0][0]              
__________________________________________________________________________________________________
output_cov (Conv2D)             (None, 6, 24, 78)    3078        block_4b_relu[0][0]              
==================================================================================================
Total params: 11,210,718
Trainable params: 11,200,990
Non-trainable params: 9,728
__________________________________________________________________________________________________
2021-11-29 02:11:13,796 [INFO] modulus.blocks.data_loaders.multi_source_loader.data_loader: Serial augmentation enabled = False
…
