…
/usr/local/lib/python3.6/dist-packages/keras/engine/saving.py:292: UserWarning: No training configuration found in save file: the model was *not* compiled. Compile it manually.
  warnings.warn('No training configuration found in save file: '
2021-11-28 23:26:35,985 [INFO] iva.detectnet_v2.objectives.bbox_objective: Default L1 loss function will be used.
__________________________________________________________________________________________________
Layer (type)                    Output Shape         Param #     Connected to                     
==================================================================================================
input_1 (InputLayer)            (None, 3, 384, 1248) 0                                            
__________________________________________________________________________________________________
conv1 (Conv2D)                  (None, 56, 192, 624) 8288        input_1[0][0]                    
__________________________________________________________________________________________________
bn_conv1 (BatchNormalization)   (None, 56, 192, 624) 224         conv1[0][0]                      
__________________________________________________________________________________________________
activation_1 (Activation)       (None, 56, 192, 624) 0           bn_conv1[0][0]                   
__________________________________________________________________________________________________
block_1a_conv_1 (Conv2D)        (None, 64, 96, 312)  32320       activation_1[0][0]               
__________________________________________________________________________________________________
block_1a_bn_1 (BatchNormalizati (None, 64, 96, 312)  256         block_1a_conv_1[0][0]            
__________________________________________________________________________________________________
block_1a_relu_1 (Activation)    (None, 64, 96, 312)  0           block_1a_bn_1[0][0]              
__________________________________________________________________________________________________
block_1a_conv_2 (Conv2D)        (None, 64, 96, 312)  36928       block_1a_relu_1[0][0]            
__________________________________________________________________________________________________
block_1a_conv_shortcut (Conv2D) (None, 64, 96, 312)  3648        activation_1[0][0]               
__________________________________________________________________________________________________
block_1a_bn_2 (BatchNormalizati (None, 64, 96, 312)  256         block_1a_conv_2[0][0]            
__________________________________________________________________________________________________
block_1a_bn_shortcut (BatchNorm (None, 64, 96, 312)  256         block_1a_conv_shortcut[0][0]     
__________________________________________________________________________________________________
add_1 (Add)                     (None, 64, 96, 312)  0           block_1a_bn_2[0][0]              
                                                                 block_1a_bn_shortcut[0][0]       
__________________________________________________________________________________________________
block_1a_relu (Activation)      (None, 64, 96, 312)  0           add_1[0][0]                      
__________________________________________________________________________________________________
block_1b_conv_1 (Conv2D)        (None, 64, 96, 312)  36928       block_1a_relu[0][0]              
__________________________________________________________________________________________________
block_1b_bn_1 (BatchNormalizati (None, 64, 96, 312)  256         block_1b_conv_1[0][0]            
__________________________________________________________________________________________________
block_1b_relu_1 (Activation)    (None, 64, 96, 312)  0           block_1b_bn_1[0][0]              
__________________________________________________________________________________________________
block_1b_conv_2 (Conv2D)        (None, 64, 96, 312)  36928       block_1b_relu_1[0][0]            
__________________________________________________________________________________________________
block_1b_bn_2 (BatchNormalizati (None, 64, 96, 312)  256         block_1b_conv_2[0][0]            
__________________________________________________________________________________________________
add_2 (Add)                     (None, 64, 96, 312)  0           block_1b_bn_2[0][0]              
                                                                 block_1a_relu[0][0]              
__________________________________________________________________________________________________
block_1b_relu (Activation)      (None, 64, 96, 312)  0           add_2[0][0]                      
__________________________________________________________________________________________________
block_2a_conv_1 (Conv2D)        (None, 128, 48, 156) 73856       block_1b_relu[0][0]              
__________________________________________________________________________________________________
block_2a_bn_1 (BatchNormalizati (None, 128, 48, 156) 512         block_2a_conv_1[0][0]            
__________________________________________________________________________________________________
block_2a_relu_1 (Activation)    (None, 128, 48, 156) 0           block_2a_bn_1[0][0]              
__________________________________________________________________________________________________
block_2a_conv_2 (Conv2D)        (None, 128, 48, 156) 147584      block_2a_relu_1[0][0]            
__________________________________________________________________________________________________
block_2a_conv_shortcut (Conv2D) (None, 128, 48, 156) 8320        block_1b_relu[0][0]              
__________________________________________________________________________________________________
block_2a_bn_2 (BatchNormalizati (None, 128, 48, 156) 512         block_2a_conv_2[0][0]            
__________________________________________________________________________________________________
block_2a_bn_shortcut (BatchNorm (None, 128, 48, 156) 512         block_2a_conv_shortcut[0][0]     
__________________________________________________________________________________________________
add_3 (Add)                     (None, 128, 48, 156) 0           block_2a_bn_2[0][0]              
                                                                 block_2a_bn_shortcut[0][0]       
__________________________________________________________________________________________________
block_2a_relu (Activation)      (None, 128, 48, 156) 0           add_3[0][0]                      
__________________________________________________________________________________________________
block_2b_conv_1 (Conv2D)        (None, 120, 48, 156) 138360      block_2a_relu[0][0]              
__________________________________________________________________________________________________
block_2b_bn_1 (BatchNormalizati (None, 120, 48, 156) 480         block_2b_conv_1[0][0]            
__________________________________________________________________________________________________
block_2b_relu_1 (Activation)    (None, 120, 48, 156) 0           block_2b_bn_1[0][0]              
__________________________________________________________________________________________________
block_2b_conv_2 (Conv2D)        (None, 128, 48, 156) 138368      block_2b_relu_1[0][0]            
__________________________________________________________________________________________________
block_2b_bn_2 (BatchNormalizati (None, 128, 48, 156) 512         block_2b_conv_2[0][0]            
__________________________________________________________________________________________________
add_4 (Add)                     (None, 128, 48, 156) 0           block_2b_bn_2[0][0]              
                                                                 block_2a_relu[0][0]              
__________________________________________________________________________________________________
block_2b_relu (Activation)      (None, 128, 48, 156) 0           add_4[0][0]                      
__________________________________________________________________________________________________
block_3a_conv_1 (Conv2D)        (None, 192, 24, 78)  221376      block_2b_relu[0][0]              
__________________________________________________________________________________________________
block_3a_bn_1 (BatchNormalizati (None, 192, 24, 78)  768         block_3a_conv_1[0][0]            
__________________________________________________________________________________________________
block_3a_relu_1 (Activation)    (None, 192, 24, 78)  0           block_3a_bn_1[0][0]              
__________________________________________________________________________________________________
block_3a_conv_2 (Conv2D)        (None, 232, 24, 78)  401128      block_3a_relu_1[0][0]            
__________________________________________________________________________________________________
block_3a_conv_shortcut (Conv2D) (None, 232, 24, 78)  29928       block_2b_relu[0][0]              
__________________________________________________________________________________________________
block_3a_bn_2 (BatchNormalizati (None, 232, 24, 78)  928         block_3a_conv_2[0][0]            
__________________________________________________________________________________________________
block_3a_bn_shortcut (BatchNorm (None, 232, 24, 78)  928         block_3a_conv_shortcut[0][0]     
__________________________________________________________________________________________________
add_5 (Add)                     (None, 232, 24, 78)  0           block_3a_bn_2[0][0]              
                                                                 block_3a_bn_shortcut[0][0]       
__________________________________________________________________________________________________
block_3a_relu (Activation)      (None, 232, 24, 78)  0           add_5[0][0]                      
__________________________________________________________________________________________________
block_3b_conv_1 (Conv2D)        (None, 192, 24, 78)  401088      block_3a_relu[0][0]              
__________________________________________________________________________________________________
block_3b_bn_1 (BatchNormalizati (None, 192, 24, 78)  768         block_3b_conv_1[0][0]            
__________________________________________________________________________________________________
block_3b_relu_1 (Activation)    (None, 192, 24, 78)  0           block_3b_bn_1[0][0]              
__________________________________________________________________________________________________
block_3b_conv_2 (Conv2D)        (None, 232, 24, 78)  401128      block_3b_relu_1[0][0]            
__________________________________________________________________________________________________
block_3b_bn_2 (BatchNormalizati (None, 232, 24, 78)  928         block_3b_conv_2[0][0]            
__________________________________________________________________________________________________
add_6 (Add)                     (None, 232, 24, 78)  0           block_3b_bn_2[0][0]              
                                                                 block_3a_relu[0][0]              
__________________________________________________________________________________________________
block_3b_relu (Activation)      (None, 232, 24, 78)  0           add_6[0][0]                      
__________________________________________________________________________________________________
block_4a_conv_1 (Conv2D)        (None, 232, 24, 78)  484648      block_3b_relu[0][0]              
__________________________________________________________________________________________________
block_4a_bn_1 (BatchNormalizati (None, 232, 24, 78)  928         block_4a_conv_1[0][0]            
__________________________________________________________________________________________________
block_4a_relu_1 (Activation)    (None, 232, 24, 78)  0           block_4a_bn_1[0][0]              
__________________________________________________________________________________________________
block_4a_conv_2 (Conv2D)        (None, 504, 24, 78)  1052856     block_4a_relu_1[0][0]            
__________________________________________________________________________________________________
block_4a_conv_shortcut (Conv2D) (None, 504, 24, 78)  117432      block_3b_relu[0][0]              
__________________________________________________________________________________________________
block_4a_bn_2 (BatchNormalizati (None, 504, 24, 78)  2016        block_4a_conv_2[0][0]            
__________________________________________________________________________________________________
block_4a_bn_shortcut (BatchNorm (None, 504, 24, 78)  2016        block_4a_conv_shortcut[0][0]     
__________________________________________________________________________________________________
add_7 (Add)                     (None, 504, 24, 78)  0           block_4a_bn_2[0][0]              
                                                                 block_4a_bn_shortcut[0][0]       
__________________________________________________________________________________________________
block_4a_relu (Activation)      (None, 504, 24, 78)  0           add_7[0][0]                      
__________________________________________________________________________________________________
block_4b_conv_1 (Conv2D)        (None, 256, 24, 78)  1161472     block_4a_relu[0][0]              
__________________________________________________________________________________________________
block_4b_bn_1 (BatchNormalizati (None, 256, 24, 78)  1024        block_4b_conv_1[0][0]            
__________________________________________________________________________________________________
block_4b_relu_1 (Activation)    (None, 256, 24, 78)  0           block_4b_bn_1[0][0]              
__________________________________________________________________________________________________
block_4b_conv_2 (Conv2D)        (None, 504, 24, 78)  1161720     block_4b_relu_1[0][0]            
__________________________________________________________________________________________________
block_4b_bn_2 (BatchNormalizati (None, 504, 24, 78)  2016        block_4b_conv_2[0][0]            
__________________________________________________________________________________________________
add_8 (Add)                     (None, 504, 24, 78)  0           block_4b_bn_2[0][0]              
                                                                 block_4a_relu[0][0]              
__________________________________________________________________________________________________
block_4b_relu (Activation)      (None, 504, 24, 78)  0           add_8[0][0]                      
__________________________________________________________________________________________________
output_bbox (Conv2D)            (None, 24, 24, 78)   12120       block_4b_relu[0][0]              
__________________________________________________________________________________________________
output_cov (Conv2D)             (None, 6, 24, 78)    3030        block_4b_relu[0][0]              
==================================================================================================
Total params: 6,125,806
Trainable params: 6,117,630
Non-trainable params: 8,176
__________________________________________________________________________________________________
2021-11-28 23:26:36,710 [INFO] modulus.blocks.data_loaders.multi_source_loader.data_loader: Serial augmentation enabled = False
…
